models/Cora_gcn_model.pth (torch, 96206 bytes, 6 tensors)

conv1.bias f4 [16]
0.12013883 0.21112415 0.18637204 0.18215814 0.05083399 0.069219835 0.189537 0.20122926
0.15636168 0.17305022 0.13803412 0.056110796 0.16294843 0.092699796 0.21512774 0.107743785
00000000: 590b f63d ee30 583e 50d8 3e3e aa87 3a3e
00000010: 4d37 503d 21c3 8d3d fd15 423e 0b0f 4e3e
00000020: 471d 203e 1434 313e d158 0d3e 6fd4 653d
00000030: f4db 263e 64d9 bd3d 724a 5c3e c6a8 dc3d

conv1.lin.weight f4 [16, 1433]
-0.02523811 0.11379688 0.034635425 -0.26372746 0.17700523 -0.010884455 -0.0916438 -0.027489526
-0.13220721 -0.019726714 -0.00034265989 -0.027293693 0.05874373 -0.043716207 -0.045193892 0.055769917
-0.0628416 -0.08101483 -0.049990498 -0.39087933 -5.4986827e-05 -0.023410391 -0.023299286 -0.0522699
0.019472908 0.28062117 -0.015464772 -0.17097326 0.03802573 -0.075092316 0.13767667 0.024569528
0.055749226 -0.005234455 0.12743384 -0.003692134 0.055110548 0.08918969 0.047266148 -0.18264711
0.07759964 -0.083170615 -0.059098672 0.11696706 0.2315759 -0.020555876 0.0073460825 0.075690106
0.107921675 -0.037114464 0.16925563 -0.17299241 0.022704218 -0.03167097 0.28368968 -0.052085448
-0.046257216 0.034637112 -0.051562145 0.016217675 0.0771098 -0.10403639 -0.09252204 -0.094592296
-0.012718037 -0.073225826 0.009339254 -0.021207582 0.009789318 -0.0950312 0.10826904 0.03286414
0.021867864 -0.027941711 0.028500376 -0.006040264 0.048843004 -0.018499035 0.23140402 0.007690572
-0.08464653 0.20910814 0.07882395 0.008304643 0.015812928 -0.15190583 -0.17708048 -0.07037234
0.0715519 -0.079607375 0.017656505 0.002589912 0.029692339 0.16030708 0.10254702 -0.06131781
0.043739222 0.122940585 -0.018344993 -0.20744814 -0.09830054 -0.0034340739 0.0013024926 -0.03187469
-0.094081335 0.026961211 0.0804625 0.10305083 0.1769431 -0.10565024 -0.054688327 0.048389774
-0.13443245 -0.00079299795 0.047917496 -0.02670565 -0.010441282 -0.018765409 -0.06621567 0.08683364
0.016732944 0.10538437 0.07277228 0.115343116 0.0042684455 -0.006405579 0.040367715 0.17729212
-0.12937476 -0.04753293 0.07184567 0.09866594 0.017579112 -0.05595139 -0.016944772 -0.11080297
0.08864752 0.0793215 -0.030547952 0.14200595 -0.17153321 0.0830564 0.07269493 0.0019197064
0.031817656 0.0054793223 -0.11536322 0.092684016 0.013853569 0.056724284 -0.006043329 0.002400285
0.015383142 -0.036938023 -0.079209335 -0.0070613855 0.078721784 0.053643737 0.19271924 0.18860433
0.005632706 -0.029170075 -0.022453787 0.00032035727 -0.08023534 0.026535438 0.0074007884 -0.017121324
-0.032702148 -0.046560273 0.052163545 -0.035413466 -0.049591452 -0.035182383 0.08745728 0.010278612
-0.0789779 0.0053296746 0.030815156 -0.072472066 0.013467077 -0.036343887 0.05367653 0.006205395
-0.1684825 -0.0041279537 -0.07378794 0.028960818 0.0070855767 0.012010002 0.018582107 0.20947461
0.020634787 -0.004090712 0.017985051 -0.21146084 -0.15616512 -0.121254265 -0.039537437 -0.038759366
0.07908912 0.006658462 -0.1115324 -0.16458213 0.04377926 -0.16936012 -0.019634396 -0.10416464
-0.09644611 -0.008225782 -0.059041098 0.12348216 -0.13052918 -0.10438842 -0.013479628 0.049288806
-0.0028591598 -0.054129712 -0.08622531 -0.038109843 0.036615152 -0.07488493 0.026330002 0.0174132
-0.010603058 -0.014519187 0.03851488 -0.03038833 0.2635665 0.010441807 0.031891316 0.08198772
-0.05709307 0.09710706 0.23462151 0.06408268 -0.07283924 0.09931242 -0.2255931 0.0007464632
-0.06610306 -0.05182588 0.13001299 -0.07249038 0.0016439408 -0.02062203 -0.059379313 -0.066910475
0.13839526 -0.10995264 -0.034689415 0.052898332 0.058339205 -0.014153504 -0.06527445 -0.012156871
00000000: 27c0 cebc 570e e93d e0dd 0d3d 4907 87be
00000010: dc40 353e b754 32bc bfaf bbbd b731 e1bc
00000020: 5461 07be eb99 a1bc 08a7 b3b9 0697 dfbc
00000030: 449d 703d c40f 33bd 3b1d 39bd ff6e 643d
00000040: 19b3 80bd 1aeb a5bd d6c2 4cbd 5621 c8be
00000050: a8a1 66b8 26c7 bfbc 25de bebc f618 56bd
00000060: a685 9f3c 94ad 8f3e f45f 7dbc 9d13 2fbe
00000070: dec0 1b3d 00ca 99bd 1dfb 0c3e 0946 c93c
00000080: 4d59 643d cb85 abbb 047e 023e bbf7 71bb
00000090: 99bb 613d 16a9 b63d 269a 413d d807 3bbe
000000a0: 8fec 9e3d 5b55 aabd 7311 72bd 6d8c ef3d
000000b0: 3c22 6d3e cc64 a8bc 68b7 f03b 6a03 9b3d
000000c0: 0a06 dd3d 5605 18bd 5951 2d3e ec24 31be
000000d0: 32fe b93c 6bb9 01bd c63f 913e 8d57 55bd
000000e0: 3578 3dbd a5df 0d3d d432 53bd eeda 843c
000000f0: beeb 9d3d 0811 d5bd 327c bdbd 9bb9 c1bd
00000100: 505f 50bc 6cf7 95bd ac03 193c 86bb adbc
00000110: 6063 203c b89f c2bd 29bc dd3d 8c9c 063d
00000120: 3c24 b33c 04e6 e4bc 9f79 e93c 68ed c5bb
00000130: 9a0f 483d 4a8b 97bc 2df5 6c3e 3201 fc3b
00000140: 295b adbd 7220 563e 736e a13d 3310 083c
00000150: 1d8a 813c 348d 1bbe 9654 35be 601f 90bd
00000160: cd89 923d 3109 a3bd 60a4 903c 83bb 293b
00000170: 593d f33c 8a27 243e 2c04 d23d 6228 7bbd
00000180: e627 333d 46c8 fb3d 3d48 96bc 496d 54be
00000190: cb51 c9bd 330e 61bb 66b8 aa3a 098f 02bd
000001a0: b7ad c0bd c2dd dc3c 86c9 a43d 500c d33d
000001b0: 9230 353e 275f d8bd de00 60bd 5b34 463d
000001c0: a9a8 09be 31e1 4fba 2345 443d cfc5 dabc
000001d0: e911 2bbc eab9 99bc 159c 87bd d6d5 b13d
000001e0: 8713 893c c3d3 d73d a209 953d 0339 ec3d
000001f0: 51de 8b3b e4e5 d1bb 9e58 253d 118c 353e
00000200: d17a 04be e4b1 42bd d323 933d 5e11 ca3d
00000210: 1202 903c 492d 65bd c3cf 8abc abec e2bd
00000220: d58c b53d 5073 a23d b33f fabc 026a 113e
00000230: 67a6 2fbe 7919 aa3d 14e1 943d a89e fb3a
00000240: 3b53 023d e38b b33b 8d43 ecbd 1ed1 bd3d
00000250: 14fa 623c b957 683d 1e07 c6bb 1a4e 1d3b
00000260: 9309 7c3c 534c 17bd 8138 a2bd 3263 e7bb
00000270: e338 a13d 89b9 5b3d 3158 453e 7e21 413e
00000280: 9092 b83b 15f6 eebc 01f1 b7bc a0f5 a739
00000290: 6d52 a4bd d960 d93c 5082 f23b 0542 8cbc
000002a0: b0f2 05bd fcb5 3ebd 71a9 553d b60d 11bd
000002b0: 6820 4bbd 671b 10bd cd1c b33d a067 283c
000002c0: 2abf a1bd 8da4 ae3b 1170 fc3c 3c6c 94bd
000002d0: 04a5 5c3c 54dd 14bd ecdb 5b3d a056 cb3b
000002e0: ad86 2cbe c943 87bb 221e 97bd 3d3f ed3c
000002f0: 202e e83b 99c5 443c 8139 983c 8380 563e
00000300: 490a a93c 610b 86bb 6355 933c 3189 58be
00000310: c0e9 1fbe 2854 f8bd 02f2 21bd 24c2 1ebd
00000320: 7af9 a13d 3a2f da3b 196b e4bd 3888 28be
00000330: e251 333d bd6c 2dbe 50d8 a0bc 4554 d5bd
00000340: 8a85 c5bd 6ec5 06bc 14d5 71bd 37e4 fc3d
00000350: 71a9 05be 99c9 d5bd a8d9 5cbc 0fe3 493d
00000360: be60 3bbb 1eb7 5dbd e596 b0bd 1119 1cbd
00000370: c5f9 153d 455d 99bd 04b2 d73c 21a6 8e3c
00000380: 73b8 2dbc e2e1 6dbc c7c1 1d3d f2f0 f8bc
00000390: 30f2 863e 1d14 2b3c 78a0 023d 2ee9 a73d
000003a0: 6cda 69bd 11e0 c63d 9f40 703e c83d 833d
000003b0: bd2c 95bd 4f64 cb3d e101 67be 4cae 433a
000003c0: 0b61 87bd 6047 54bd 2022 053e d675 94bd
000003d0: 8079 d73a 88ef a8bc b937 73bd 5c08 89bd
000003e0: 7db7 0d3e da2e e1bd 7d16 0ebd ecab 583d
000003f0: 17f5 6e3d 19e4 67bc 9cae 85bd 9d2d 47bc

conv2.bias f4 [16]
-0.060934756 0.2430671 0.038285244 0.12622246 -0.049488034 0.18553677 0.12888736 0.030099703
0.017910529 -0.04143928 0.004139558 -0.1584083 0.011029218 0.30197808 0.2522298 -0.02584667
00000000: b996 79bd 95e6 783e fdd0 1c3d 7640 013e
00000010: f7b3 4abd 5afd 3d3e 0cfb 033e a793 f63c
00000020: 1ab9 923c 3cbc 29bd 21a5 873b c935 22be
00000030: e5b3 343c df9c 9a3e 4424 813e 65bc d3bc

conv2.lin.weight f4 [16, 16]
-0.21903567 0.73466563 0.95781225 -0.09703906 -0.2456997 -0.36402157 0.041561563 -0.24914926
-0.24366154 0.9769538 0.82071704 0.23789752 0.004445519 -0.07525116 1.0520595 0.58876115
-0.61044806 -0.6964651 -0.6352287 -0.25973618 0.096515514 -0.23778987 -0.9805153 -0.22702053
0.119090706 0.5803239 0.4524008 0.9026075 0.62894326 0.44734976 0.2506986 0.39824957
0.745244 -0.003160967 -0.3952159 0.21538238 -0.98367393 0.11176642 0.5530012 0.21889248
-0.8252494 0.75984263 0.6392837 -0.47034582 0.33521968 0.18445334 0.60081005 0.6095005
-0.73001283 0.069983855 -0.11153333 -0.024769446 1.0345001 0.85657626 -0.54039764 -0.6077751
0.5250872 -0.02450309 0.72075003 0.72674197 -0.22299409 -0.29235664 -0.530915 0.35148218
0.31901798 -0.07296529 -0.2254846 0.6842371 -0.52941597 0.45899138 -0.01628887 0.03534558
-0.8347304 0.8048026 0.5881119 -0.4040334 0.76640147 -0.35476288 0.4683385 0.49970415
0.8752015 -0.4066515 -0.1837262 0.8525192 -0.019587224 -0.420867 0.7388406 0.89933556
0.6339912 -0.46219012 -0.42904463 0.27138796 0.5736088 0.4442082 -0.028317776 -0.81046206
0.10272991 0.29317904 0.10694986 -0.6295299 0.498527 0.7770646 0.630946 -0.70120794
0.55631864 -0.39158237 -0.32305962 -0.13084087 -0.83877695 0.47519866 -0.42595696 0.5092701
-0.9286662 0.6288688 0.9839885 0.28794134 0.95872307 -0.11647436 -0.18319692 0.5084359
0.8368092 -0.094099686 0.26116213 0.26952112 -0.038910843 -0.7375996 0.37175527 -0.84525543
-0.50424373 0.9796777 0.5371454 0.016751138 0.4288122 0.69516015 0.26684695 -0.78395146
0.22732285 -0.119392164 0.40697542 -0.5230692 -0.6776147 -0.33705693 -0.41211906 0.58181083
0.906216 0.1766811 -0.8421547 0.86063427 -0.4307849 0.76739794 0.5878006 0.06414863
-0.65132767 -0.05132188 0.16062191 -0.38031217 0.073190965 -0.33324948 -0.7686497 0.25038382
0.6622951 -0.6548648 0.10145738 0.3367237 0.6833271 0.83375955 -0.4172502 0.380708
0.5060001 -0.70908695 -0.52498907 0.537883 0.85115933 -0.41809356 -0.8202278 0.19469458
-0.2885787 0.6120451 0.03910319 1.1439452 -0.65136164 0.33481866 0.58025765 0.4757275
-0.3998861 0.11785581 0.5710926 -0.5072956 -0.08287394 -0.8377665 -0.01922457 -0.31873372
-0.87884104 0.32658842 -0.032271612 0.75642204 0.08309444 -0.46155795 0.19392239 0.83243555
0.5261746 0.0011066257 0.29203978 0.62521756 0.14163496 -0.48066336 0.09708471 -1.0158195
0.47047773 0.5423348 0.14809665 -0.6503069 0.23894598 0.48125416 0.6553096 -0.7534561
0.42409232 -0.39400473 0.0009812287 -0.3753063 -0.83654034 0.7650694 -0.89413214 0.11643887
0.119411774 -0.04701687 0.43368378 -0.31929186 -0.7220268 -0.7814684 0.67370075 0.17602265
0.1728841 0.3131039 0.19587007 -0.2795255 -0.19135445 0.8299623 1.1835507 -0.65750974
-0.73956263 0.7188187 1.0609075 -0.19798315 0.15366475 -0.20630358 0.33857363 0.31898874
0.20583965 -0.2779473 -0.46332893 -0.31599754 -0.15872478 -0.36638653 0.7744954 0.16011786
00000000: e34a 60be 0c13 3c3f 2f33 753f 6abc c6bd
00000010: b498 7bbe 0961 babe 753c 2a3d fc20 7fbe
00000020: 6982 79be a519 7a3f 831a 523f 689b 733e
00000030: b7ab 913b 481d 9abd e3a9 863f 0db9 163f
00000040: 5346 1cbf 894b 32bf 599e 22bf 24fc 84be
00000050: eda9 c53d 307f 73be 0d03 7bbf 1278 68be
00000060: d4e5 f33d 1b90 143f 14a1 e73e 4911 673f
00000070: 6d02 213f 070b e53e 915b 803e 5ee7 cb3e
00000080: 50c8 3e3f 3a28 4fbb bd59 cabe 338d 5c3e
00000090: 0ed2 7bbf cbe5 e43d 7d91 0d3f 5a25 603e
000000a0: 8b43 53bf 0c85 423f 19a8 233f 2bd1 f0be
000000b0: eaa1 ab3e 56e1 3c3e b0ce 193f 3a08 1c3f
000000c0: 1fe2 3abf b253 8f3d 966b e4bd 4be9 cabc
000000d0: 806a 843f 9548 5b3f 8057 0abf 2697 1bbf
000000e0: 1d6c 063f b4ba c8bc 1383 383f c30b 3a3f
000000f0: 9058 64be c5af 95be 0cea 07bf 79f5 b33e
00000100: 5356 a33e d36e 95bd 6fe5 66be 2a2a 2f3f
00000110: ce87 07bf eb00 eb3e 3c70 85bc 87c6 103d
00000120: e4b0 55bf 8b07 4e3f 808e 163f 77dd cebe
00000130: e332 443f 7ba3 b5be 10ca ef3e 39d9 ff3e
00000140: 350d 603f a034 d0be b922 3cbe b33e 5a3f
00000150: 6375 a0bc e17b d7be a824 3d3f db3a 663f
00000160: 3f4d 223f 2fa4 ecbe bdab dbbe 5df3 8a3e
00000170: 07d8 123f 426f e33e aefa e7bc 717a 4fbf
00000180: 0f64 d23d 901b 963e 8708 db3d df28 21bf
00000190: ee3e ff3e b5ed 463f ad85 213f 5d82 33bf
000001a0: e66a 0e3f 7c7d c8be 1268 a5be 26fb 05be
000001b0: 16ba 56bf 3d4d f33e 0817 dabe 865f 023f
000001c0: 11bd 6dbf 8cfd 203f ace6 7b3f 0c6d 933e
000001d0: e06e 753f 1c8a eebd f997 3bbe db28 023f
000001e0: 2139 563f 56b7 c0bd 0bb7 853e acfe 893e
000001f0: fa60 1fbd 54d3 3cbf b556 be3e a962 58bf
00000200: 1e16 01bf 28cc 7a3f 5c82 093f af39 893c
00000210: 468d db3e 04f6 313f 2aa0 883e 0bb1 48bf
00000220: 52c7 683e e183 f4bd 155f d03e dde7 05bf
00000230: 2878 2dbf ba92 acbe 4501 d3be 8ef1 143f
00000240: c6fd 673f e4eb 343e 7397 57bf 8752 5c3f
00000250: d78f dcbe 3174 443f 1a7a 163f 5b60 833d
00000260: 69bd 26bf e436 52bd 127a 243e 47b8 c2be
00000270: 25e5 953d ad9f aabe 3ac6 44bf 4f32 803e
00000280: 2c8c 293f 38a5 27bf e3c8 cf3d 0c67 ac3e
00000290: 86ee 2e3f 4471 553f d1a1 d5be 29ec c23e
000002a0: 3989 013f b986 35bf af65 06bf b3b2 093f
000002b0: 94e5 593f 5c10 d6be 73fa 51bf 045e 473e
000002c0: 96c0 93be fdae 1c3f ab2a 203d cc6c 923f
000002d0: a3bf 26bf 5a6d ab3e c48b 143f 8e92 f33e
000002e0: dfbd ccbe 635e f13d 2033 123f 20de 01bf
000002f0: d0b9 a9bd de77 56bf d87c 9dbc 1131 a3be
00000300: bafb 60bf 9936 a73e 3d2f 04bd e0a4 413f
00000310: 6b2d aa3d 5351 ecbe 9793 463e 7f1a 553f
00000320: 61b3 063f 320c 913a 3d86 953e 420e 203f
00000330: c108 113e 8219 f6be 59d4 c63d 6006 82bf
00000340: 75e2 f03e 74d6 0a3f a6a6 173e 837a 26bf
00000350: 41ae 743e f266 f63e 5fc2 273f 80e2 40bf
00000360: a122 d93e fdba c9be 929c 803a 2628 c0be
00000370: 8227 56bf 97db 433f d8e5 64bf 8177 ee3d
00000380: 298e f43d c394 40bd cd0b de3e 397a a3be
00000390: c0d6 38bf 500e 48bf a777 2c3f 483f 343e
000003a0: 8808 313e 284f a03e 2a92 483e f71d 8fbe
000003b0: 6cf2 43be 6978 543f 977e 973f 8f52 28bf
000003c0: fa53 3dbf 8104 383f d1cb 873f 18bc 4abe
000003d0: 4b5a 1d3e 3f41 53be 8659 ad3e 7e52 a33e
000003e0: a1c7 523e 1c4f 8ebe 7339 edbe 6eca a1be
000003f0: c088 22be 0497 bbbe 5545 463f f0f5 233e

conv3.bias f4 [7]
-0.058385808 -0.439487 0.41829786 -0.33444414 -0.30993983 0.5587749 -0.07708769
00000000: f525 6fbd 7104 e1be 232b d63e 433c abbe
00000010: 6fb0 9ebe df0b 0f3f 27e0 9dbd

conv3.lin.weight f4 [7, 16]
-0.38439068 0.726564 -0.708674 0.7711519 -0.16436686 0.3627275 -0.201115 0.80369127
-0.12462123 -0.2112323 0.6984776 -0.17949148 0.99371046 -0.39756325 -0.91008586 -0.67777437
0.3312519 -0.0018930126 0.27874655 0.6168854 0.43790174 -1.1640882 0.06669763 -0.11293282
0.83906 0.6511489 -0.5689046 0.92195576 -0.1621146 0.053013418 -1.0826668 -0.6393929
0.7041025 0.95949745 0.5156693 0.07341596 0.61744344 -0.9896144 -0.98545694 -0.6696644
-0.34270012 -1.1872532 -0.998054 -0.6904665 -1.0167981 -0.813102 0.4398399 -0.4624368
0.43665558 -0.6495068 -0.041614328 -0.52617115 0.033080302 0.08049561 -0.7788626 0.83306223
0.30727005 -0.5993522 -0.6452318 0.88567746 1.0008866 -0.546731 0.5449134 0.862765
0.20602031 -0.8636446 -1.1108515 0.7185511 -0.96845615 -0.6740672 0.77129704 0.7367477
0.9576254 -0.91755843 0.34489653 -0.6680893 -0.39766654 0.49376637 -0.4966618 0.8996439
-0.6896459 -0.30349097 0.095944114 -0.8173458 -0.46314195 0.44232517 0.5024893 -1.0290723
-0.32119608 0.3196328 -0.07125739 -0.75521183 -0.469432 0.8693609 0.6981829 -1.0907124
-1.0397643 -0.67725956 0.3776017 -0.9768569 0.6710361 0.35665292 -1.0347911 -0.7126355
-0.6485983 0.8798193 0.74785805 0.5244716 -0.12297275 -0.3975804 -1.2481422 -0.73347175
00000000: dbce c4be 1900 3a3f a96b 35bf 366a 453f
00000010: c94f 28be 6bb7 b93e 17f1 4dbe b6be 4d3f
00000020: 6a39 ffbd 484d 58be 6ecf 323f 9dcc 37be
00000030: cf63 7e3f 698d cbbe 63fb 68bf 9f82 2dbf
00000040: d999 a93e f61e f8ba deb7 8e3e 34ec 1d3f
00000050: a834 e03e d800 95bf c498 883d 5349 e7bd
00000060: a3cc 563f b2b1 263f bba3 11bf 4b05 6c3f
00000070: 5f01 26be 9924 593d d394 8abf 41af 23bf
00000080: 1040 343f a0a1 753f e702 043f 1b5b 963d
00000090: c610 1e3f 5f57 7dbf e846 7cbf 206f 2bbf
000000a0: 6476 afbe eaf7 97bf 7880 7fbf 6ac2 30bf
000000b0: 7126 82bf 7427 50bf b232 e13e 84c4 ecbe
000000c0: 5291 df3e 1446 26bf c973 2abd 27b3 06bf
000000d0: 367f 073d e2da a43d 8a63 47bf 9143 553f
000000e0: 8052 9d3e 256f 19bf e92d 25bf c2bb 623f
000000f0: 0d1d 803f 90f6 0bbf 727f 0b3f 2bde 5c3f
00000100: fdf6 523e d017 5dbf 6230 8ebf f7f2 373f
00000110: beec 77bf ab8f 2cbf b973 453f 7f9b 3c3f
00000120: f026 753f 1ce5 6abf 4796 b03e e607 2bbf
00000130: f39a cbbe f2ce fc3e 754a febe 104f 663f
00000140: a28c 30bf 2b63 9bbe 597e c43d 933d 51bf
00000150: f120 edbe 7278 e23e 24a3 003f a4b8 83bf
00000160: d073 a4be e9a6 a33e 65ef 91bd 9055 41bf
00000170: 6459 f0be 708e 5e3f 1dbc 323f 779c 8bbf
00000180: ff16 85bf e260 2dbf 0355 c13e 4b13 7abf
00000190: 06c9 2b3f 369b b63e 0974 84bf 486f 36bf
000001a0: 8a0a 26bf d63b 613f a073 3f3f c543 063f
000001b0: 23d9 fbbd a88f cbbe 20c3 9fbf cec4 3bbf
